…
n","  LOSS_NAME: smooth\n","  METRIC: acc\n","  MODEL_NAME: pct\n","  OPTIMIZER: pct\n","  SEED: 1\n","  TASK: cls\n","EXP_EXTRA:\n","  no_test: False\n","  no_val: True\n","  save_ckp: 25\n","  test_eval_freq: 1\n","  val_eval_freq: 1\n","MODEL:\n","  MV:\n","    backbone: resnet18\n","    feat_size: 16\n","  PN2:\n","    version_cls: 1.0\n","  RSCNN:\n","    ssn_or_msn: True\n","TRAIN:\n","  early_stop: 300\n","  l2: 0.0001\n","  learning_rate: 0.0001\n","  lr_clip: 1e-05\n","  lr_decay_factor: 0.5\n","  lr_reduce_patience: 10\n","  num_epochs: 300\n","Pct(\n","  (model): Pct(\n","    (conv1): Conv1d(3, 64, kernel_size=(1,), stride=(1,), bias=False)\n","    (conv2): Conv1d(64, 64, kernel_size=(1,), stride=(1,), bias=False)\n","    (bn1): BatchNorm1d(64, eps=1e-05, momentum=0.1, affine=True, track_running_stats=True)\n","    (bn2): BatchNorm1d(64, eps=1e-05, momentum=0.1, affine=True, track_running_stats=True)\n","    (gather_local_0): Local_op(\n","      (conv1): Conv1d(128, 128, kernel_size=(1,), stride=(1,), bias=False)\n","      (conv2): Conv1d(128, 128, kernel_size=(1,), stride=(1,), bias=False)\n","      (bn1): BatchNorm1d(128, eps=1e-05, momentum=0.1, affine=True, track_running_stats=True)\n","      (bn2): BatchNorm1d(128, eps=1e-05, momentum=0.1, affine=True, track_running_stats=True)\n","    )\n","    (gather_local_1): Local_op(\n","      (conv1): Conv1d(256, 256, kernel_size=(1,), stride=(1,), bias=False)\n","      (conv2): Conv1d(256, 256, kernel_size=(1,), stride=(1,), bias=False)\n","      (bn1): BatchNorm1d(256, eps=1e-05, momentum=0.1, affine=True, track_running_stats=True)\n","      (bn2): BatchNorm1d(256, eps=1e-05, momentum=0.1, affine=True, track_running_stats=True)\n","    )\n","    (pt_last): Point_Transformer_Last(\n","      (conv1): Conv1d(256, 256, kernel_size=(1,), stride=(1,), bias=False)\n","      (conv2): Conv1d(256, 256, kernel_size=(1,), stride=(1,), bias=False)\n","      (bn1): BatchNorm1d(256, eps=1e-05, momentum=0.1, affine=True, track_running_stats=True)\n","      (bn2): BatchNorm1d(256, eps=1e-05, momentum=0.1, affine=True, track_running_stats=True)\n","      (sa1): SA_Layer(\n","        (q_conv): Conv1d(256, 64, kernel_size=(1,), stride=(1,), bias=False)\n","        (k_conv): Conv1d(256, 64, kernel_size=(1,), stride=(1,), bias=False)\n","        (v_conv): Conv1d(256, 256, kernel_size=(1,), stride=(1,))\n","        (trans_conv): Conv1d(256, 256, kernel_size=(1,), stride=(1,))\n","        (after_norm): BatchNorm1d(256, eps=1e-05, momentum=0.1, affine=True, track_running_stats=True)\n","        (act): ReLU()\n","        (softmax): Softmax(dim=-1)\n","      )\n","      (sa2): SA_Layer(\n","        (q_conv): Conv1d(256, 64, kernel_size=(1,), stride=(1,), bias=False)\n","        (k_conv): Conv1d(256, 64, kernel_size=(1,), stride=(1,), bias=False)\n","        (v_conv): Conv1d(256, 256, kernel_size=(1,), stride=(1,))\n","        (trans_conv): Conv1d(256, 256, kernel_size=(1,), stride=(1,))\n","        (after_norm): BatchNorm1d(256, eps=1e-05, momentum=0.1, affine=True, track_running_stats=True)\n","        (act): ReLU()\n","        (softmax): Softmax(dim=-1)\n","      )\n","      (sa3): SA_Layer(\n","        (q_conv): Conv1d(256, 64, kernel_size=(1,), stride=(1,), bias=False)\n","        (k_conv): Conv1d(256, 64, kernel_size=(1,), stride=(1,), bias=False)\n","        (v_conv): Conv1d(256, 256, kernel_size=(1,), stride=(1,))\n","        (trans_conv): Conv1d(256, 256, kernel_size=(1,), stride=(1,))\n","        (after_norm): BatchNorm1d(256, eps=1e-05, momentum=0.1, affine=True, track_running_stats=True)\n","        (act): ReLU()\n","        (softmax): Softmax(dim=-1)\n","      )\n","      (sa4): SA_Layer(\n","        (q_conv): Conv1d(256, 64, kernel_size=(1,), stride=(1,), bias=False)\n","        (k_conv): Conv1d(256, 64, kernel_size=(1,), stride=(1,), bias=False)\n","        (v_conv): Conv1d(256, 256, kernel_size=(1,), stride=(1,))\n","        (trans_conv): Conv1d(256, 256, kernel_size=(1,), stride=(1,))\n","        (after_norm): BatchNorm1d(256, eps=1e-05, momentum=0.1, affine=True, track_running_stats=True)\n","        (act): ReLU()\n","        (softmax): Softmax(dim=-1)\n","      )\n","    )\n","    (conv_fuse): Sequential(\n","      (0): Conv1d(1280, 1024, kernel_size=(1,), stride=(1,), bias=False)\n","      (1): BatchNorm1d(1024, eps=1e-05, momentum=0.1, affine=True, track_running_stats=True)\n","      (2): LeakyReLU(negative_slope=0.2)\n","    )\n","    (linear1): Linear(in_features=1024, out_features=512, bias=False)\n","    (bn6): BatchNorm1d(512, eps=1e-05, momentum=0.1, affine=True, track_running_stats=True)\n","    (dp1): Dropout(p=0.5, inplace=False)\n","    (linear2): Linear(in_features=512, out_features=256, bias=True)\n","    (bn7): BatchNorm1d(256, eps=1e-05, momentum=0.1, affine=True, track_running_stats=True)\n","    (dp2): Dropout(p=0.5, inplace=False)\n","    (linear3): Linear(in_features=256, out_features=40, bias=True)\n","  )\n",")\n","Recovering model and checkpoint from cor_exp/dgcnn_pct_run_1/model_best_test.pth\n","EPSILON\n","0.05\n","setting parameters for standard version\n","using standard version including apgd-ce, apgd-t.\n","/content/drive/.shortcut-targets-by-id/13c6fMYtl5e-60Uej23p2ItJRgTm7trhw/project/ModelNet40c/rs_cnn/models/../utils/pointnet2_utils.p
…
ER: vanilla\n","  SEED: 1\n","  TASK: cls_trans\n","EXP_EXTRA:\n","  no_test: False\n","  no_val: True\n","  save_ckp: 25\n","  test_eval_freq: 1\n","  val_eval_freq: 1\n","MODEL:\n","  MV:\n","    backbone: resnet18\n","    feat_size: 16\n","  PN2:\n","    version_cls: 1.0\n","  RSCNN:\n","    ssn_or_msn: True\n","TRAIN:\n","  early_stop: 300\n","  l2: 0.0\n","  learning_rate: 0.001\n","  lr_clip: 1e-05\n","  lr_decay_factor: 0.5\n","  lr_reduce_patience: 10\n","  num_epochs: 300\n","PointNet(\n","  (model): PointNetCls(\n","    (feat): PointNetfeat(\n","      (stn): STN3d(\n","        (conv1): Conv1d(3, 64, kernel_size=(1,), stride=(1,))\n","        (conv2): Conv1d(64, 128, kernel_size=(1,), stride=(1,))\n","        (conv3): Conv1d(128, 1024, kernel_size=(1,), stride=(1,))\n","        (fc1): Linear(in_features=1024, out_features=512, bias=True)\n","        (fc2): Linear(in_features=512, out_features=256, bias=True)\n","        (fc3): Linear(in_features=256, out_features=9, bias=True)\n","        (relu): ReLU()\n","        (bn1): BatchNorm1d(64, eps=1e-05, momentum=0.1, affine=True, track_running_stats=True)\n","        (bn2): BatchNorm1d(128, eps=1e-05, momentum=0.1, affine=True, track_running_stats=True)\n","        (bn3): BatchNorm1d(1024, eps=1e-05, momentum=0.1, affine=True, track_running_stats=True)\n","        (bn4): BatchNorm1d(512, eps=1e-05, momentum=0.1, affine=True, track_running_stats=True)\n","        (bn5): BatchNorm1d(256, eps=1e-05, momentum=0.1, affine=True, track_running_stats=True)\n","      )\n","      (conv1): Conv1d(3, 64, kernel_size=(1,), stride=(1,))\n","      (conv2): Conv1d(64, 128, kernel_size=(1,), stride=(1,))\n","      (conv3): Conv1d(128, 1024, kernel_size=(1,), stride=(1,))\n","      (bn1): BatchNorm1d(64, eps=1e-05, momentum=0.1, affine=True, track_running_stats=True)\n","      (bn2): BatchNorm1d(128, eps=1e-05, momentum=0.1, affine=True, track_running_stats=True)\n","      (bn3): BatchNorm1d(1024, eps=1e-05, momentum=0.1, affine=True, track_running_stats=True)\n","      (fstn): STNkd(\n","        (conv1): Conv1d(64, 64, kernel_size=(1,), stride=(1,))\n","        (conv2): Conv1d(64, 128, kernel_size=(1,), stride=(1,))\n","        (conv3): Conv1d(128, 1024, kernel_size=(1,), stride=(1,))\n","        (fc1): Linear(in_features=1024, out_features=512, bias=True)\n","        (fc2): Linear(in_features=512, out_features=256, bias=True)\n","        (fc3): Linear(in_features=256, out_features=4096, bias=True)\n","        (relu): ReLU()\n","        (bn1): BatchNorm1d(64, eps=1e-05, momentum=0.1, affine=True, track_running_stats=True)\n","        (bn2): BatchNorm1d(128, eps=1e-05, momentum=0.1, affine=True, track_running_stats=True)\n","        (bn3): BatchNorm1d(1024, eps=1e-05, momentum=0.1, affine=True, track_running_stats=True)\n","        (bn4): BatchNorm1d(512, eps=1e-05, momentum=0.1, affine=True, track_running_stats=True)\n","        (bn5): BatchNorm1d(256, eps=1e-05, momentum=0.1, affine=True, track_running_stats=True)\n","      )\n","    )\n","    (fc1): Linear(in_features=1024, out_features=512, bias=True)\n","    (fc2): Linear(in_features=512, out_features=256, bias=True)\n","    (fc3): Linear(in_features=256, out_features=40, bias=True)\n","    (dropout): Dropout(p=0.3, inplace=False)\n","    (bn1): BatchNorm1d(512, eps=1e-05, momentum=0.1, affine=True, track_running_stats=True)\n","    (bn2): BatchNorm1d(256, eps=1e-05, momentum=0.1, affine=True, track_running_stats=True)\n","    (relu): ReLU()\n","  )\n",")\n","Recovering model and checkpoint from cor_exp/dgcnn_pointnet_run_1/model_best_test.pth\n","EPSILON\n","0.05\n","setting parameters for standard version\n","using standard version including apgd-ce, apgd-t.\n","initial accuracy: 90.04%\n","torch.Size([1024, 1024, 3])\n","apgd-ce - 1/29 - 30 
…
   version_cls: 1.0\n","  RSCNN:\n","    ssn_or_msn: True\n","TRAIN:\n","  early_stop: 300\n","  l2: 0.0\n","  learning_rate: 0.001\n","  lr_clip: 1e-05\n","  lr_decay_factor: 0.5\n","  lr_reduce_patience: 10\n","  num_epochs: 300\n","RSCNN(\n","  (model): RSCNN_SSN(\n","    (SA_modules): ModuleList(\n","      (0): PointnetSAModuleMSG(\n","        (groupers): ModuleList(\n","          (0): QueryAndGroup()\n","        )\n","        (mlps): ModuleList(\n","          (0): SharedRSConv(\n","            (RSConvLayer0): RSConvLayer(\n","              (RS_Conv): RSConv(\n","                (bn_rsconv): BatchNorm2d(16, eps=1e-05, momentum=0.1, affine=True, track_running_stats=True)\n","                (bn_channel_raising): BatchNorm1d(128, eps=1e-05, momentum=0.1, affine=True, track_running_stats=True)\n","                (bn_xyz_raising): BatchNorm2d(16, eps=1e-05, momentum=0.1, affine=True, track_running_stats=True)\n","                (bn_mapping): BatchNorm2d(64, eps=1e-05, momentum=0.1, affine=True, track_running_stats=True)\n","                (activation): ReLU(inplace=True)\n","                (mapping_func1): Conv2d(10, 64, kernel_size=(1, 1), stride=(1, 1))\n","                (mapping_func2): Conv2d(64, 16, kernel_size=(1, 1), stride=(1, 1))\n","                (cr_mapping): Conv1d(16, 128, kernel_size=(1,), stride=(1,))\n","                (xyz_raising): Conv2d(3, 16, kernel_size=(1, 1), stride=(1, 1))\n","              )\n","            )\n","          )\n","        )\n","      )\n","      (1): PointnetSAModuleMSG(\n","        (groupers): ModuleList(\n","          (0): QueryAndGroup()\n","        )\n","        (mlps): ModuleList(\n","          (0): SharedRSConv(\n","            (RSConvLayer0): RSConvLayer(\n","              (RS_Conv): RSConv(\n","                (bn_rsconv): BatchNorm2d(131, eps=1e-05, momentum=0.1, affine=True, track_running_stats=True)\n","                (bn_channel_raising): BatchNorm1d(512, eps=1e-05, momentum=0.1, affine=True, track_running_stats=True)\n","                (bn_xyz_raising): BatchNorm2d(16, eps=1e-05, momentum=0.1, affine=True, track_running_stats=True)\n","                (bn_mapping): BatchNorm2d(128, eps=1e-05, momentum=0.1, affine=True, track_running_stats=True)\n","                (activation): ReLU(inplace=True)\n","                (mapping_func1): Conv2d(10, 128, kernel_size=(1, 1), stride=(1, 1))\n","                (mapping_func2): Conv2d(128, 131, kernel_size=(1, 1), stride=(1, 1))\n","                (cr_mapping): Conv1d(131, 512, kernel_size=(1,), stride=(1,))\n","              )\n","            )\n","          )\n","        )\n","      )\n","      (2): PointnetSAModule(\n","        (groupers): ModuleList(\n","          (0): GroupAll()\n","        )\n","        (mlps): ModuleList(\n","          (0): GloAvgConv(\n","            (conv_avg): Conv2d(515, 1024, kernel_size=(1, 1), stride=(1, 1))\n","            (bn_avg): BatchNorm2d(1024, eps=1e-05, momentum=0.1, affine=True, track_running_stats=True)\n","            (activation): ReLU(inplace=True)\n","          )\n","        )\n","      )\n","    )\n","    (FC_layer): Sequential(\n","      (0): FC(\n","        (fc): Linear(in_features=1024, out_features=512, bias=False)\n","        (bn): BatchNorm1d(\n","          (bn): BatchNorm1d(512, eps=1e-05, momentum=0.1, affine=True, track_running_stats=True)\n","        )\n","        (activation): ReLU(inplace=True)\n","      )\n","      (1): Dropout(p=0.5, inplace=False)\n","      (2): FC(\n","        (fc): Linear(in_features=512, out_features=256, bias=False)\n","        (bn): BatchNorm1d(\n","          (bn): BatchNorm1d(256, eps=1e-05, momentum=0.1, affine=True, track_running_stats=True)\n","        )\n","        (activation): ReLU(inplace=True)\n","      )\n","      (3): Dropout(p=0.5, inplace=False)\n","      (4): FC(\n","        (fc): Linear(in_features=256, out_features=40, bias=True)\n","      )\n","    )\n","  )\n",")\n","Recovering model and checkpoint from cor_exp/dgcnn_rscnn_run_1/model_best_test.pth\n","EPSILON\n","0.05\n","setting parameters for standard version\n","using standard version including apgd-ce, apgd-t.\n","Traceback (most recent call last):\n","  File \"/content/drive/.shortcut-targets-by-id/13c6fMYtl5e-60Uej23p2I
…
OSS_NAME: smooth\n","  METRIC: acc\n","  MODEL_NAME: dgcnn\n","  OPTIMIZER: vanilla\n","  SEED: 1\n","  TASK: cls\n","EXP_EXTRA:\n","  no_test: False\n","  no_val: True\n","  save_ckp: 25\n","  test_eval_freq: 1\n","  val_eval_freq: 1\n","MODEL:\n","  MV:\n","    backbone: resnet18\n","    feat_size: 16\n","  PN2:\n","    version_cls: 1.0\n","  RSCNN:\n","    ssn_or_msn: True\n","TRAIN:\n","  early_stop: 300\n","  l2: 0.0001\n","  learning_rate: 0.001\n","  lr_clip: 1e-05\n","  lr_decay_factor: 0.5\n","  lr_reduce_patience: 10\n","  num_epochs: 300\n","DGCNN(\n","  (model): DGCNN(\n","    (bn1): BatchNorm2d(64, eps=1e-05, momentum=0.1, affine=True, track_running_stats=True)\n","    (bn2): BatchNorm2d(64, eps=1e-05, momentum=0.1, affine=True, track_running_stats=True)\n","    (bn3): BatchNorm2d(128, eps=1e-05, momentum=0.1, affine=True, track_running_stats=True)\n","    (bn4): BatchNorm2d(256, eps=1e-05, momentum=0.1, affine=True, track_running_stats=True)\n","    (bn5): BatchNorm1d(1024, eps=1e-05, momentum=0.1, affine=True, track_running_stats=True)\n","    (conv1): Sequential(\n","      (0): Conv2d(6, 64, kernel_size=(1, 1), stride=(1, 1), bias=False)\n","      (1): BatchNorm2d(64, eps=1e-05, momentum=0.1, affine=True, track_running_stats=True)\n","      (2): LeakyReLU(negative_slope=0.2)\n","    )\n","    (conv2): Sequential(\n","      (0): Conv2d(128, 64, kernel_size=(1, 1), stride=(1, 1), bias=False)\n","      (1): BatchNorm2d(64, eps=1e-05, momentum=0.1, affine=True, track_running_stats=True)\n","      (2): LeakyReLU(negative_slope=0.2)\n","    )\n","    (conv3): Sequential(\n","      (0): Conv2d(128, 128, kernel_size=(1, 1), stride=(1, 1), bias=False)\n","      (1): BatchNorm2d(128, eps=1e-05, momentum=0.1, affine=True, track_running_stats=True)\n","      (2): LeakyReLU(negative_slope=0.2)\n","    )\n","    (conv4): Sequential(\n","      (0): Conv2d(256, 256, kernel_size=(1, 1), stride=(1, 1), bias=False)\n","      (1): BatchNorm2d(256, eps=1e-05, momentum=0.1, affine=True, track_running_stats=True)\n","      (2): LeakyReLU(negative_slope=0.2)\n","    )\n","    (conv5): Sequential(\n","      (0): Conv1d(512, 1024, kernel_size=(1,), stride=(1,), bias=False)\n","      (1): BatchNorm1d(1024, eps=1e-05, momentum=0.1, affine=True, track_running_stats=True)\n","      (2): LeakyReLU(negative_slope=0.2)\n","    )\n","    (linear1): Linear(in_features=2048, out_features=512, bias=False)\n","    (bn6): BatchNorm1d(512, eps=1e-05, momentum=0.1, affine=True, track_running_stats=True)\n","    (dp1): Dropout(p=0.5, inplace=False)\n","    (linear2): Linear(in_features=512, out_features=256, bias=True)\n","    (bn7): BatchNorm1d(256, eps=1e-05, momentum=0.1, affine=True, track_running_stats=True)\n","    (dp2): Dropout(p=0.5, inplace=False)\n","    (linear3): Linear(in_features=256, out_features=40, bias=True)\n","  )\n",")\n","Recovering model and checkpoint from runs/cutmix_k_dgcnn_run_1/model_best_test.pth\n","EPSILON\n","0.05\n","setting parameters for standard version\n","using standard version including apgd-ce, apgd-t.\n","initial accuracy: 92.19%\n","torch.Size([1024, 1024, 3])\n","apgd-ce - 1/30 - 31 out of 32 successfully perturbed\n","apgd-ce - 2/3
…
n","  LOSS_NAME: smooth\n","  METRIC: acc\n","  MODEL_NAME: pct\n","  OPTIMIZER: pct\n","  SEED: 1\n","  TASK: cls\n","EXP_EXTRA:\n","  no_test: False\n","  no_val: True\n","  save_ckp: 25\n","  test_eval_freq: 1\n","  val_eval_freq: 1\n","MODEL:\n","  MV:\n","    backbone: resnet18\n","    feat_size: 16\n","  PN2:\n","    version_cls: 1.0\n","  RSCNN:\n","    ssn_or_msn: True\n","TRAIN:\n","  early_stop: 300\n","  l2: 0.0001\n","  learning_rate: 0.0001\n","  lr_clip: 1e-05\n","  lr_decay_factor: 0.5\n","  lr_reduce_patience: 10\n","  num_epochs: 300\n","Pct(\n","  (model): Pct(\n","    (conv1): Conv1d(3, 64, kernel_size=(1,), stride=(1,), bias=False)\n","    (conv2): Conv1d(64, 64, kernel_size=(1,), stride=(1,), bias=False)\n","    (bn1): BatchNorm1d(64, eps=1e-05, momentum=0.1, affine=True, track_running_stats=True)\n","    (bn2): BatchNorm1d(64, eps=1e-05, momentum=0.1, affine=True, track_running_stats=True)\n","    (gather_local_0): Local_op(\n","      (conv1): Conv1d(128, 128, kernel_size=(1,), stride=(1,), bias=False)\n","      (conv2): Conv1d(128, 128, kernel_size=(1,), stride=(1,), bias=False)\n","      (bn1): BatchNorm1d(128, eps=1e-05, momentum=0.1, affine=True, track_running_stats=True)\n","      (bn2): BatchNorm1d(128, eps=1e-05, momentum=0.1, affine=True, track_running_stats=True)\n","    )\n","    (gather_local_1): Local_op(\n","      (conv1): Conv1d(256, 256, kernel_size=(1,), stride=(1,), bias=False)\n","      (conv2): Conv1d(256, 256, kernel_size=(1,), stride=(1,), bias=False)\n","      (bn1): BatchNorm1d(256, eps=1e-05, momentum=0.1, affine=True, track_running_stats=True)\n","      (bn2): BatchNorm1d(256, eps=1e-05, momentum=0.1, affine=True, track_running_stats=True)\n","    )\n","    (pt_last): Point_Transformer_Last(\n","      (conv1): Conv1d(256, 256, kernel_size=(1,), stride=(1,), bias=False)\n","      (conv2): Conv1d(256, 256, kernel_size=(1,), stride=(1,), bias=False)\n","      (bn1): BatchNorm1d(256, eps=1e-05, momentum=0.1, affine=True, track_running_stats=True)\n","      (bn2): BatchNorm1d(256, eps=1e-05, momentum=0.1, affine=True, track_running_stats=True)\n","      (sa1): SA_Layer(\n","        (q_conv): Conv1d(256, 64, kernel_size=(1,), stride=(1,), bias=False)\n","        (k_conv): Conv1d(256, 64, kernel_size=(1,), stride=(1,), bias=False)\n","        (v_conv): Conv1d(256, 256, kernel_size=(1,), stride=(1,))\n","        (trans_conv): Conv1d(256, 256, kernel_size=(1,), stride=(1,))\n","        (after_norm): BatchNorm1d(256, eps=1e-05, momentum=0.1, affine=True, track_running_stats=True)\n","        (act): ReLU()\n","        (softmax): Softmax(dim=-1)\n","      )\n","      (sa2): SA_Layer(\n","        (q_conv): Conv1d(256, 64, kernel_size=(1,), stride=(1,), bias=False)\n","        (k_conv): Conv1d(256, 64, kernel_size=(1,), stride=(1,), bias=False)\n","        (v_conv): Conv1d(256, 256, kernel_size=(1,), stride=(1,))\n","        (trans_conv): Conv1d(256, 256, kernel_size=(1,), stride=(1,))\n","        (after_norm): BatchNorm1d(256, eps=1e-05, momentum=0.1, affine=True, track_running_stats=True)\n","        (act): ReLU()\n","        (softmax): Softmax(dim=-1)\n","      )\n","      (sa3): SA_Layer(\n","        (q_conv): Conv1d(256, 64, kernel_size=(1,), stride=(1,), bias=False)\n","        (k_conv): Conv1d(256, 64, kernel_size=(1,), stride=(1,), bias=False)\n","        (v_conv): Conv1d(256, 256, kernel_size=(1,), stride=(1,))\n","        (trans_conv): Conv1d(256, 256, kernel_size=(1,), stride=(1,))\n","        (after_norm): BatchNorm1d(256, eps=1e-05, momentum=0.1, affine=True, track_running_stats=True)\n","        (act): ReLU()\n","        (softmax): Softmax(dim=-1)\n","      )\n","      (sa4): SA_Layer(\n","        (q_conv): Conv1d(256, 64, kernel_size=(1,), stride=(1,), bias=False)\n","        (k_conv): Conv1d(256, 64, kernel_size=(1,), stride=(1,), bias=False)\n","        (v_conv): Conv1d(256, 256, kernel_size=(1,), stride=(1,))\n","        (trans_conv): Conv1d(256, 256, kernel_size=(1,), stride=(1,))\n","        (after_norm): BatchNorm1d(256, eps=1e-05, momentum=0.1, affine=True, track_running_stats=True)\n","        (act): ReLU()\n","        (softmax): Softmax(dim=-1)\n","      )\n","    )\n","    (conv_fuse): Sequential(\n","      (0): Conv1d(1280, 1024, kernel_size=(1,), stride=(1,), bias=False)\n","      (1): BatchNorm1d(1024, eps=1e-05, momentum=0.1, affine=True, track_running_stats=True)\n","      (2): LeakyReLU(negative_slope=0.2)\n","    )\n","    (linear1): Linear(in_features=1024, out_features=512, bias=False)\n","    (bn6): BatchNorm1d(512, eps=1e-05, momentum=0.1, affine=True, track_running_stats=True)\n","    (dp1): Dropout(p=0.5, inplace=False)\n","    (linear2): Linear(in_features=512, out_features=256, bias=True)\n","    (bn7): BatchNorm1d(256, eps=1e-05, momentum=0.1, affine=True, track_running_stats=True)\n","    (dp2): Dropout(p=0.5, inplace=False)\n","    (linear3): Linear(in_features=256, out_features=40, bias=True)\n","  )\n",")\n","Recovering model and checkpoint from runs/cutmix_k_pct_run_1/model_best_test.pth\n","EPSILON\n","0.05\n","setting parameters for standard version\n","using standard version including apgd-ce, apgd-t.\n","/content/drive/.shortcut-targets-by-id/13c6fMYtl5e-60Uej23p2ItJRgTm7trhw/project/ModelNet40c/rs_cnn/models/../utils/pointnet2_utils.p
…
   version_cls: 1.0\n","  RSCNN:\n","    ssn_or_msn: True\n","TRAIN:\n","  early_stop: 300\n","  l2: 0.0\n","  learning_rate: 0.001\n","  lr_clip: 1e-05\n","  lr_decay_factor: 0.5\n","  lr_reduce_patience: 10\n","  num_epochs: 300\n","RSCNN(\n","  (model): RSCNN_SSN(\n","    (SA_modules): ModuleList(\n","      (0): PointnetSAModuleMSG(\n","        (groupers): ModuleList(\n","          (0): QueryAndGroup()\n","        )\n","        (mlps): ModuleList(\n","          (0): SharedRSConv(\n","            (RSConvLayer0): RSConvLayer(\n","              (RS_Conv): RSConv(\n","                (bn_rsconv): BatchNorm2d(16, eps=1e-05, momentum=0.1, affine=True, track_running_stats=True)\n","                (bn_channel_raising): BatchNorm1d(128, eps=1e-05, momentum=0.1, affine=True, track_running_stats=True)\n","                (bn_xyz_raising): BatchNorm2d(16, eps=1e-05, momentum=0.1, affine=True, track_running_stats=True)\n","                (bn_mapping): BatchNorm2d(64, eps=1e-05, momentum=0.1, affine=True, track_running_stats=True)\n","                (activation): ReLU(inplace=True)\n","                (mapping_func1): Conv2d(10, 64, kernel_size=(1, 1), stride=(1, 1))\n","                (mapping_func2): Conv2d(64, 16, kernel_size=(1, 1), stride=(1, 1))\n","                (cr_mapping): Conv1d(16, 128, kernel_size=(1,), stride=(1,))\n","                (xyz_raising): Conv2d(3, 16, kernel_size=(1, 1), stride=(1, 1))\n","              )\n","            )\n","          )\n","        )\n","      )\n","      (1): PointnetSAModuleMSG(\n","        (groupers): ModuleList(\n","          (0): QueryAndGroup()\n","        )\n","        (mlps): ModuleList(\n","          (0): SharedRSConv(\n","            (RSConvLayer0): RSConvLayer(\n","              (RS_Conv): RSConv(\n","                (bn_rsconv): BatchNorm2d(131, eps=1e-05, momentum=0.1, affine=True, track_running_stats=True)\n","                (bn_channel_raising): BatchNorm1d(512, eps=1e-05, momentum=0.1, affine=True, track_running_stats=True)\n","                (bn_xyz_raising): BatchNorm2d(16, eps=1e-05, momentum=0.1, affine=True, track_running_stats=True)\n","                (bn_mapping): BatchNorm2d(128, eps=1e-05, momentum=0.1, affine=True, track_running_stats=True)\n","                (activation): ReLU(inplace=True)\n","                (mapping_func1): Conv2d(10, 128, kernel_size=(1, 1), stride=(1, 1))\n","                (mapping_func2): Conv2d(128, 131, kernel_size=(1, 1), stride=(1, 1))\n","                (cr_mapping): Conv1d(131, 512, kernel_size=(1,), stride=(1,))\n","              )\n","            )\n","          )\n","        )\n","      )\n","      (2): PointnetSAModule(\n","        (groupers): ModuleList(\n","          (0): GroupAll()\n","        )\n","        (mlps): ModuleList(\n","          (0): GloAvgConv(\n","            (conv_avg): Conv2d(515, 1024, kernel_size=(1, 1), stride=(1, 1))\n","            (bn_avg): BatchNorm2d(1024, eps=1e-05, momentum=0.1, affine=True, track_running_stats=True)\n","            (activation): ReLU(inplace=True)\n","          )\n","        )\n","      )\n","    )\n","    (FC_layer): Sequential(\n","      (0): FC(\n","        (fc): Linear(in_features=1024, out_features=512, bias=False)\n","        (bn): BatchNorm1d(\n","          (bn): BatchNorm1d(512, eps=1e-05, momentum=0.1, affine=True, track_running_stats=True)\n","        )\n","        (activation): ReLU(inplace=True)\n","      )\n","      (1): Dropout(p=0.5, inplace=False)\n","      (2): FC(\n","        (fc): Linear(in_features=512, out_features=256, bias=False)\n","        (bn): BatchNorm1d(\n","          (bn): BatchNorm1d(256, eps=1e-05, momentum=0.1, affine=True, track_running_stats=True)\n","        )\n","        (activation): ReLU(inplace=True)\n","      )\n","      (3): Dropout(p=0.5, inplace=False)\n","      (4): FC(\n","        (fc): Linear(in_features=256, out_features=40, bias=True)\n","      )\n","    )\n","  )\n",")\n","Recovering model and checkpoint from runs/cutmix_k_rscnn_run_1/model_best_test.pth\n","EPSILON\n","0.05\n","setting parameters for standard version\n","using standard version including apgd-ce, apgd-t.\n","Traceback (most recent call last):\n","  File \"/content/drive/.shortcut-targets-by-id/13c6fMYtl5e-60Uej23p2I
…
OSS_NAME: smooth\n","  METRIC: acc\n","  MODEL_NAME: dgcnn\n","  OPTIMIZER: vanilla\n","  SEED: 1\n","  TASK: cls\n","EXP_EXTRA:\n","  no_test: False\n","  no_val: True\n","  save_ckp: 25\n","  test_eval_freq: 1\n","  val_eval_freq: 1\n","MODEL:\n","  MV:\n","    backbone: resnet18\n","    feat_size: 16\n","  PN2:\n","    version_cls: 1.0\n","  RSCNN:\n","    ssn_or_msn: True\n","TRAIN:\n","  early_stop: 300\n","  l2: 0.0001\n","  learning_rate: 0.001\n","  lr_clip: 1e-05\n","  lr_decay_factor: 0.5\n","  lr_reduce_patience: 10\n","  num_epochs: 300\n","DGCNN(\n","  (model): DGCNN(\n","    (bn1): BatchNorm2d(64, eps=1e-05, momentum=0.1, affine=True, track_running_stats=True)\n","    (bn2): BatchNorm2d(64, eps=1e-05, momentum=0.1, affine=True, track_running_stats=True)\n","    (bn3): BatchNorm2d(128, eps=1e-05, momentum=0.1, affine=True, track_running_stats=True)\n","    (bn4): BatchNorm2d(256, eps=1e-05, momentum=0.1, affine=True, track_running_stats=True)\n","    (bn5): BatchNorm1d(1024, eps=1e-05, momentum=0.1, affine=True, track_running_stats=True)\n","    (conv1): Sequential(\n","      (0): Conv2d(6, 64, kernel_size=(1, 1), stride=(1, 1), bias=False)\n","      (1): BatchNorm2d(64, eps=1e-05, momentum=0.1, affine=True, track_running_stats=True)\n","      (2): LeakyReLU(negative_slope=0.2)\n","    )\n","    (conv2): Sequential(\n","      (0): Conv2d(128, 64, kernel_size=(1, 1), stride=(1, 1), bias=False)\n","      (1): BatchNorm2d(64, eps=1e-05, momentum=0.1, affine=True, track_running_stats=True)\n","      (2): LeakyReLU(negative_slope=0.2)\n","    )\n","    (conv3): Sequential(\n","      (0): Conv2d(128, 128, kernel_size=(1, 1), stride=(1, 1), bias=False)\n","      (1): BatchNorm2d(128, eps=1e-05, momentum=0.1, affine=True, track_running_stats=True)\n","      (2): LeakyReLU(negative_slope=0.2)\n","    )\n","    (conv4): Sequential(\n","      (0): Conv2d(256, 256, kernel_size=(1, 1), stride=(1, 1), bias=False)\n","      (1): BatchNorm2d(256, eps=1e-05, momentum=0.1, affine=True, track_running_stats=True)\n","      (2): LeakyReLU(negative_slope=0.2)\n","    )\n","    (conv5): Sequential(\n","      (0): Conv1d(512, 1024, kernel_size=(1,), stride=(1,), bias=False)\n","      (1): BatchNorm1d(1024, eps=1e-05, momentum=0.1, affine=True, track_running_stats=True)\n","      (2): LeakyReLU(negative_slope=0.2)\n","    )\n","    (linear1): Linear(in_features=2048, out_features=512, bias=False)\n","    (bn6): BatchNorm1d(512, eps=1e-05, momentum=0.1, affine=True, track_running_stats=True)\n","    (dp1): Dropout(p=0.5, inplace=False)\n","    (linear2): Linear(in_features=512, out_features=256, bias=True)\n","    (bn7): BatchNorm1d(256, eps=1e-05, momentum=0.1, affine=True, track_running_stats=True)\n","    (dp2): Dropout(p=0.5, inplace=False)\n","    (linear3): Linear(in_features=256, out_features=40, bias=True)\n","  )\n",")\n","Recovering model and checkpoint from runs/cutmix_r_dgcnn_run_1/model_best_test.pth\n","EPSILON\n","0.05\n","setting parameters for standard version\n","using standard version including apgd-ce, apgd-t.\n","initial accuracy: 92.38%\n","torch.Size([1024, 1024, 3])\n","apgd-ce - 1/30 - 31 out of 32 successfully perturbed\n","apgd-ce - 2/3
…
n","  LOSS_NAME: smooth\n","  METRIC: acc\n","  MODEL_NAME: pct\n","  OPTIMIZER: pct\n","  SEED: 1\n","  TASK: cls\n","EXP_EXTRA:\n","  no_test: False\n","  no_val: True\n","  save_ckp: 25\n","  test_eval_freq: 1\n","  val_eval_freq: 1\n","MODEL:\n","  MV:\n","    backbone: resnet18\n","    feat_size: 16\n","  PN2:\n","    version_cls: 1.0\n","  RSCNN:\n","    ssn_or_msn: True\n","TRAIN:\n","  early_stop: 300\n","  l2: 0.0001\n","  learning_rate: 0.0001\n","  lr_clip: 1e-05\n","  lr_decay_factor: 0.5\n","  lr_reduce_patience: 10\n","  num_epochs: 300\n","Pct(\n","  (model): Pct(\n","    (conv1): Conv1d(3, 64, kernel_size=(1,), stride=(1,), bias=False)\n","    (conv2): Conv1d(64, 64, kernel_size=(1,), stride=(1,), bias=False)\n","    (bn1): BatchNorm1d(64, eps=1e-05, momentum=0.1, affine=True, track_running_stats=True)\n","    (bn2): BatchNorm1d(64, eps=1e-05, momentum=0.1, affine=True, track_running_stats=True)\n","    (gather_local_0): Local_op(\n","      (conv1): Conv1d(128, 128, kernel_size=(1,), stride=(1,), bias=False)\n","      (conv2): Conv1d(128, 128, kernel_size=(1,), stride=(1,), bias=False)\n","      (bn1): BatchNorm1d(128, eps=1e-05, momentum=0.1, affine=True, track_running_stats=True)\n","      (bn2): BatchNorm1d(128, eps=1e-05, momentum=0.1, affine=True, track_running_stats=True)\n","    )\n","    (gather_local_1): Local_op(\n","      (conv1): Conv1d(256, 256, kernel_size=(1,), stride=(1,), bias=False)\n","      (conv2): Conv1d(256, 256, kernel_size=(1,), stride=(1,), bias=False)\n","      (bn1): BatchNorm1d(256, eps=1e-05, momentum=0.1, affine=True, track_running_stats=True)\n","      (bn2): BatchNorm1d(256, eps=1e-05, momentum=0.1, affine=True, track_running_stats=True)\n","    )\n","    (pt_last): Point_Transformer_Last(\n","      (conv1): Conv1d(256, 256, kernel_size=(1,), stride=(1,), bias=False)\n","      (conv2): Conv1d(256, 256, kernel_size=(1,), stride=(1,), bias=False)\n","      (bn1): BatchNorm1d(256, eps=1e-05, momentum=0.1, affine=True, track_running_stats=True)\n","      (bn2): BatchNorm1d(256, eps=1e-05, momentum=0.1, affine=True, track_running_stats=True)\n","      (sa1): SA_Layer(\n","        (q_conv): Conv1d(256, 64, kernel_size=(1,), stride=(1,), bias=False)\n","        (k_conv): Conv1d(256, 64, kernel_size=(1,), stride=(1,), bias=False)\n","        (v_conv): Conv1d(256, 256, kernel_size=(1,), stride=(1,))\n","        (trans_conv): Conv1d(256, 256, kernel_size=(1,), stride=(1,))\n","        (after_norm): BatchNorm1d(256, eps=1e-05, momentum=0.1, affine=True, track_running_stats=True)\n","        (act): ReLU()\n","        (softmax): Softmax(dim=-1)\n","      )\n","      (sa2): SA_Layer(\n","        (q_conv): Conv1d(256, 64, kernel_size=(1,), stride=(1,), bias=False)\n","        (k_conv): Conv1d(256, 64, kernel_size=(1,), stride=(1,), bias=False)\n","        (v_conv): Conv1d(256, 256, kernel_size=(1,), stride=(1,))\n","        (trans_conv): Conv1d(256, 256, kernel_size=(1,), stride=(1,))\n","        (after_norm): BatchNorm1d(256, eps=1e-05, momentum=0.1, affine=True, track_running_stats=True)\n","        (act): ReLU()\n","        (softmax): Softmax(dim=-1)\n","      )\n","      (sa3): SA_Layer(\n","        (q_conv): Conv1d(256, 64, kernel_size=(1,), stride=(1,), bias=False)\n","        (k_conv): Conv1d(256, 64, kernel_size=(1,), stride=(1,), bias=False)\n","        (v_conv): Conv1d(256, 256, kernel_size=(1,), stride=(1,))\n","        (trans_conv): Conv1d(256, 256, kernel_size=(1,), stride=(1,))\n","        (after_norm): BatchNorm1d(256, eps=1e-05, momentum=0.1, affine=True, track_running_stats=True)\n","        (act): ReLU()\n","        (softmax): Softmax(dim=-1)\n","      )\n","      (sa4): SA_Layer(\n","        (q_conv): Conv1d(256, 64, kernel_size=(1,), stride=(1,), bias=False)\n","        (k_conv): Conv1d(256, 64, kernel_size=(1,), stride=(1,), bias=False)\n","        (v_conv): Conv1d(256, 256, kernel_size=(1,), stride=(1,))\n","        (trans_conv): Conv1d(256, 256, kernel_size=(1,), stride=(1,))\n","        (after_norm): BatchNorm1d(256, eps=1e-05, momentum=0.1, affine=True, track_running_stats=True)\n","        (act): ReLU()\n","        (softmax): Softmax(dim=-1)\n","      )\n","    )\n","    (conv_fuse): Sequential(\n","      (0): Conv1d(1280, 1024, kernel_size=(1,), stride=(1,), bias=False)\n","      (1): BatchNorm1d(1024, eps=1e-05, momentum=0.1, affine=True, track_running_stats=True)\n","      (2): LeakyReLU(negative_slope=0.2)\n","    )\n","    (linear1): Linear(in_features=1024, out_features=512, bias=False)\n","    (bn6): BatchNorm1d(512, eps=1e-05, momentum=0.1, affine=True, track_running_stats=True)\n","    (dp1): Dropout(p=0.5, inplace=False)\n","    (linear2): Linear(in_features=512, out_features=256, bias=True)\n","    (bn7): BatchNorm1d(256, eps=1e-05, momentum=0.1, affine=True, track_running_stats=True)\n","    (dp2): Dropout(p=0.5, inplace=False)\n","    (linear3): Linear(in_features=256, out_features=40, bias=True)\n","  )\n",")\n","Recovering model and checkpoint from runs/cutmix_r_pct_run_1/model_best_test.pth\n","EPSILON\n","0.05\n","setting parameters for standard version\n","using standard version including apgd-ce, apgd-t.\n","/content/drive/.shortcut-targets-by-id/13c6fMYtl5e-60Uej23p2ItJRgTm7trhw/project/ModelNet40c/rs_cnn/models/../utils/pointnet2_utils.p
…
   version_cls: 1.0\n","  RSCNN:\n","    ssn_or_msn: True\n","TRAIN:\n","  early_stop: 300\n","  l2: 0.0\n","  learning_rate: 0.001\n","  lr_clip: 1e-05\n","  lr_decay_factor: 0.5\n","  lr_reduce_patience: 10\n","  num_epochs: 300\n","RSCNN(\n","  (model): RSCNN_SSN(\n","    (SA_modules): ModuleList(\n","      (0): PointnetSAModuleMSG(\n","        (groupers): ModuleList(\n","          (0): QueryAndGroup()\n","        )\n","        (mlps): ModuleList(\n","          (0): SharedRSConv(\n","            (RSConvLayer0): RSConvLayer(\n","              (RS_Conv): RSConv(\n","                (bn_rsconv): BatchNorm2d(16, eps=1e-05, momentum=0.1, affine=True, track_running_stats=True)\n","                (bn_channel_raising): BatchNorm1d(128, eps=1e-05, momentum=0.1, affine=True, track_running_stats=True)\n","                (bn_xyz_raising): BatchNorm2d(16, eps=1e-05, momentum=0.1, affine=True, track_running_stats=True)\n","                (bn_mapping): BatchNorm2d(64, eps=1e-05, momentum=0.1, affine=True, track_running_stats=True)\n","                (activation): ReLU(inplace=True)\n","                (mapping_func1): Conv2d(10, 64, kernel_size=(1, 1), stride=(1, 1))\n","                (mapping_func2): Conv2d(64, 16, kernel_size=(1, 1), stride=(1, 1))\n","                (cr_mapping): Conv1d(16, 128, kernel_size=(1,), stride=(1,))\n","                (xyz_raising): Conv2d(3, 16, kernel_size=(1, 1), stride=(1, 1))\n","              )\n","            )\n","          )\n","        )\n","      )\n","      (1): PointnetSAModuleMSG(\n","        (groupers): ModuleList(\n","          (0): QueryAndGroup()\n","        )\n","        (mlps): ModuleList(\n","          (0): SharedRSConv(\n","            (RSConvLayer0): RSConvLayer(\n","              (RS_Conv): RSConv(\n","                (bn_rsconv): BatchNorm2d(131, eps=1e-05, momentum=0.1, affine=True, track_running_stats=True)\n","                (bn_channel_raising): BatchNorm1d(512, eps=1e-05, momentum=0.1, affine=True, track_running_stats=True)\n","                (bn_xyz_raising): BatchNorm2d(16, eps=1e-05, momentum=0.1, affine=True, track_running_stats=True)\n","                (bn_mapping): BatchNorm2d(128, eps=1e-05, momentum=0.1, affine=True, track_running_stats=True)\n","                (activation): ReLU(inplace=True)\n","                (mapping_func1): Conv2d(10, 128, kernel_size=(1, 1), stride=(1, 1))\n","                (mapping_func2): Conv2d(128, 131, kernel_size=(1, 1), stride=(1, 1))\n","                (cr_mapping): Conv1d(131, 512, kernel_size=(1,), stride=(1,))\n","              )\n","            )\n","          )\n","        )\n","      )\n","      (2): PointnetSAModule(\n","        (groupers): ModuleList(\n","          (0): GroupAll()\n","        )\n","        (mlps): ModuleList(\n","          (0): GloAvgConv(\n","            (conv_avg): Conv2d(515, 1024, kernel_size=(1, 1), stride=(1, 1))\n","            (bn_avg): BatchNorm2d(1024, eps=1e-05, momentum=0.1, affine=True, track_running_stats=True)\n","            (activation): ReLU(inplace=True)\n","          )\n","        )\n","      )\n","    )\n","    (FC_layer): Sequential(\n","      (0): FC(\n","        (fc): Linear(in_features=1024, out_features=512, bias=False)\n","        (bn): BatchNorm1d(\n","          (bn): BatchNorm1d(512, eps=1e-05, momentum=0.1, affine=True, track_running_stats=True)\n","        )\n","        (activation): ReLU(inplace=True)\n","      )\n","      (1): Dropout(p=0.5, inplace=False)\n","      (2): FC(\n","        (fc): Linear(in_features=512, out_features=256, bias=False)\n","        (bn): BatchNorm1d(\n","          (bn): BatchNorm1d(256, eps=1e-05, momentum=0.1, affine=True, track_running_stats=True)\n","        )\n","        (activation): ReLU(inplace=True)\n","      )\n","      (3): Dropout(p=0.5, inplace=False)\n","      (4): FC(\n","        (fc): Linear(in_features=256, out_features=40, bias=True)\n","      )\n","    )\n","  )\n",")\n","Recovering model and checkpoint from runs/cutmix_r_rscnn_run_1/model_best_test.pth\n","EPSILON\n","0.05\n","setting parameters for standard version\n","using standard version including apgd-ce, apgd-t.\n","Traceback (most recent call last):\n","  File \"/content/drive/.shortcut-targets-by-id/13c6fMYtl5e-60Uej23p2I
…
OSS_NAME: smooth\n","  METRIC: acc\n","  MODEL_NAME: dgcnn\n","  OPTIMIZER: vanilla\n","  SEED: 1\n","  TASK: cls\n","EXP_EXTRA:\n","  no_test: False\n","  no_val: True\n","  save_ckp: 25\n","  test_eval_freq: 1\n","  val_eval_freq: 1\n","MODEL:\n","  MV:\n","    backbone: resnet18\n","    feat_size: 16\n","  PN2:\n","    version_cls: 1.0\n","  RSCNN:\n","    ssn_or_msn: True\n","TRAIN:\n","  early_stop: 300\n","  l2: 0.0001\n","  learning_rate: 0.001\n","  lr_clip: 1e-05\n","  lr_decay_factor: 0.5\n","  lr_reduce_patience: 10\n","  num_epochs: 300\n","DGCNN(\n","  (model): DGCNN(\n","    (bn1): BatchNorm2d(64, eps=1e-05, momentum=0.1, affine=True, track_running_stats=True)\n","    (bn2): BatchNorm2d(64, eps=1e-05, momentum=0.1, affine=True, track_running_stats=True)\n","    (bn3): BatchNorm2d(128, eps=1e-05, momentum=0.1, affine=True, track_running_stats=True)\n","    (bn4): BatchNorm2d(256, eps=1e-05, momentum=0.1, affine=True, track_running_stats=True)\n","    (bn5): BatchNorm1d(1024, eps=1e-05, momentum=0.1, affine=True, track_running_stats=True)\n","    (conv1): Sequential(\n","      (0): Conv2d(6, 64, kernel_size=(1, 1), stride=(1, 1), bias=False)\n","      (1): BatchNorm2d(64, eps=1e-05, momentum=0.1, affine=True, track_running_stats=True)\n","      (2): LeakyReLU(negative_slope=0.2)\n","    )\n","    (conv2): Sequential(\n","      (0): Conv2d(128, 64, kernel_size=(1, 1), stride=(1, 1), bias=False)\n","      (1): BatchNorm2d(64, eps=1e-05, momentum=0.1, affine=True, track_running_stats=True)\n","      (2): LeakyReLU(negative_slope=0.2)\n","    )\n","    (conv3): Sequential(\n","      (0): Conv2d(128, 128, kernel_size=(1, 1), stride=(1, 1), bias=False)\n","      (1): BatchNorm2d(128, eps=1e-05, momentum=0.1, affine=True, track_running_stats=True)\n","      (2): LeakyReLU(negative_slope=0.2)\n","    )\n","    (conv4): Sequential(\n","      (0): Conv2d(256, 256, kernel_size=(1, 1), stride=(1, 1), bias=False)\n","      (1): BatchNorm2d(256, eps=1e-05, momentum=0.1, affine=True, track_running_stats=True)\n","      (2): LeakyReLU(negative_slope=0.2)\n","    )\n","    (conv5): Sequential(\n","      (0): Conv1d(512, 1024, kernel_size=(1,), stride=(1,), bias=False)\n","      (1): BatchNorm1d(1024, eps=1e-05, momentum=0.1, affine=True, track_running_stats=True)\n","      (2): LeakyReLU(negative_slope=0.2)\n","    )\n","    (linear1): Linear(in_features=2048, out_features=512, bias=False)\n","    (bn6): BatchNorm1d(512, eps=1e-05, momentum=0.1, affine=True, track_running_stats=True)\n","    (dp1): Dropout(p=0.5, inplace=False)\n","    (linear2): Linear(in_features=512, out_features=256, bias=True)\n","    (bn7): BatchNorm1d(256, eps=1e-05, momentum=0.1, affine=True, track_running_stats=True)\n","    (dp2): Dropout(p=0.5, inplace=False)\n","    (linear3): Linear(in_features=256, out_features=40, bias=True)\n","  )\n",")\n","Recovering model and checkpoint from runs/mixup_dgcnn_run_1/model_best_test.pth\n","EPSILON\n","0.05\n","setting parameters for standard version\n","using standard version including apgd-ce, apgd-t.\n","initial accuracy: 92.38%\n","torch.Size([1024, 1024, 3])\n","apgd-ce - 1/30 - 32 out of 32 successfully perturbed\n","apgd-ce - 2/30 -
…
n","  LOSS_NAME: smooth\n","  METRIC: acc\n","  MODEL_NAME: pct\n","  OPTIMIZER: pct\n","  SEED: 1\n","  TASK: cls\n","EXP_EXTRA:\n","  no_test: False\n","  no_val: True\n","  save_ckp: 25\n","  test_eval_freq: 1\n","  val_eval_freq: 1\n","MODEL:\n","  MV:\n","    backbone: resnet18\n","    feat_size: 16\n","  PN2:\n","    version_cls: 1.0\n","  RSCNN:\n","    ssn_or_msn: True\n","TRAIN:\n","  early_stop: 300\n","  l2: 0.0001\n","  learning_rate: 0.0001\n","  lr_clip: 1e-05\n","  lr_decay_factor: 0.5\n","  lr_reduce_patience: 10\n","  num_epochs: 300\n","Pct(\n","  (model): Pct(\n","    (conv1): Conv1d(3, 64, kernel_size=(1,), stride=(1,), bias=False)\n","    (conv2): Conv1d(64, 64, kernel_size=(1,), stride=(1,), bias=False)\n","    (bn1): BatchNorm1d(64, eps=1e-05, momentum=0.1, affine=True, track_running_stats=True)\n","    (bn2): BatchNorm1d(64, eps=1e-05, momentum=0.1, affine=True, track_running_stats=True)\n","    (gather_local_0): Local_op(\n","      (conv1): Conv1d(128, 128, kernel_size=(1,), stride=(1,), bias=False)\n","      (conv2): Conv1d(128, 128, kernel_size=(1,), stride=(1,), bias=False)\n","      (bn1): BatchNorm1d(128, eps=1e-05, momentum=0.1, affine=True, track_running_stats=True)\n","      (bn2): BatchNorm1d(128, eps=1e-05, momentum=0.1, affine=True, track_running_stats=True)\n","    )\n","    (gather_local_1): Local_op(\n","      (conv1): Conv1d(256, 256, kernel_size=(1,), stride=(1,), bias=False)\n","      (conv2): Conv1d(256, 256, kernel_size=(1,), stride=(1,), bias=False)\n","      (bn1): BatchNorm1d(256, eps=1e-05, momentum=0.1, affine=True, track_running_stats=True)\n","      (bn2): BatchNorm1d(256, eps=1e-05, momentum=0.1, affine=True, track_running_stats=True)\n","    )\n","    (pt_last): Point_Transformer_Last(\n","      (conv1): Conv1d(256, 256, kernel_size=(1,), stride=(1,), bias=False)\n","      (conv2): Conv1d(256, 256, kernel_size=(1,), stride=(1,), bias=False)\n","      (bn1): BatchNorm1d(256, eps=1e-05, momentum=0.1, affine=True, track_running_stats=True)\n","      (bn2): BatchNorm1d(256, eps=1e-05, momentum=0.1, affine=True, track_running_stats=True)\n","      (sa1): SA_Layer(\n","        (q_conv): Conv1d(256, 64, kernel_size=(1,), stride=(1,), bias=False)\n","        (k_conv): Conv1d(256, 64, kernel_size=(1,), stride=(1,), bias=False)\n","        (v_conv): Conv1d(256, 256, kernel_size=(1,), stride=(1,))\n","        (trans_conv): Conv1d(256, 256, kernel_size=(1,), stride=(1,))\n","        (after_norm): BatchNorm1d(256, eps=1e-05, momentum=0.1, affine=True, track_running_stats=True)\n","        (act): ReLU()\n","        (softmax): Softmax(dim=-1)\n","      )\n","      (sa2): SA_Layer(\n","        (q_conv): Conv1d(256, 64, kernel_size=(1,), stride=(1,), bias=False)\n","        (k_conv): Conv1d(256, 64, kernel_size=(1,), stride=(1,), bias=False)\n","        (v_conv): Conv1d(256, 256, kernel_size=(1,), stride=(1,))\n","        (trans_conv): Conv1d(256, 256, kernel_size=(1,), stride=(1,))\n","        (after_norm): BatchNorm1d(256, eps=1e-05, momentum=0.1, affine=True, track_running_stats=True)\n","        (act): ReLU()\n","        (softmax): Softmax(dim=-1)\n","      )\n","      (sa3): SA_Layer(\n","        (q_conv): Conv1d(256, 64, kernel_size=(1,), stride=(1,), bias=False)\n","        (k_conv): Conv1d(256, 64, kernel_size=(1,), stride=(1,), bias=False)\n","        (v_conv): Conv1d(256, 256, kernel_size=(1,), stride=(1,))\n","        (trans_conv): Conv1d(256, 256, kernel_size=(1,), stride=(1,))\n","        (after_norm): BatchNorm1d(256, eps=1e-05, momentum=0.1, affine=True, track_running_stats=True)\n","        (act): ReLU()\n","        (softmax): Softmax(dim=-1)\n","      )\n","      (sa4): SA_Layer(\n","        (q_conv): Conv1d(256, 64, kernel_size=(1,), stride=(1,), bias=False)\n","        (k_conv): Conv1d(256, 64, kernel_size=(1,), stride=(1,), bias=False)\n","        (v_conv): Conv1d(256, 256, kernel_size=(1,), stride=(1,))\n","        (trans_conv): Conv1d(256, 256, kernel_size=(1,), stride=(1,))\n","        (after_norm): BatchNorm1d(256, eps=1e-05, momentum=0.1, affine=True, track_running_stats=True)\n","        (act): ReLU()\n","        (softmax): Softmax(dim=-1)\n","      )\n","    )\n","    (conv_fuse): Sequential(\n","      (0): Conv1d(1280, 1024, kernel_size=(1,), stride=(1,), bias=False)\n","      (1): BatchNorm1d(1024, eps=1e-05, momentum=0.1, affine=True, track_running_stats=True)\n","      (2): LeakyReLU(negative_slope=0.2)\n","    )\n","    (linear1): Linear(in_features=1024, out_features=512, bias=False)\n","    (bn6): BatchNorm1d(512, eps=1e-05, momentum=0.1, affine=True, track_running_stats=True)\n","    (dp1): Dropout(p=0.5, inplace=False)\n","    (linear2): Linear(in_features=512, out_features=256, bias=True)\n","    (bn7): BatchNorm1d(256, eps=1e-05, momentum=0.1, affine=True, track_running_stats=True)\n","    (dp2): Dropout(p=0.5, inplace=False)\n","    (linear3): Linear(in_features=256, out_features=40, bias=True)\n","  )\n",")\n","Recovering model and checkpoint from runs/mixup_pct_run_1/model_best_test.pth\n","EPSILON\n","0.05\n","setting parameters for standard version\n","using standard version including apgd-ce, apgd-t.\n","/content/drive/.shortcut-targets-by-id/13c6fMYtl5e-60Uej23p2ItJRgTm7trhw/project/ModelNet40c/rs_cnn/models/../utils/pointnet2_utils.py:5
…
   version_cls: 1.0\n","  RSCNN:\n","    ssn_or_msn: True\n","TRAIN:\n","  early_stop: 300\n","  l2: 0.0\n","  learning_rate: 0.001\n","  lr_clip: 1e-05\n","  lr_decay_factor: 0.5\n","  lr_reduce_patience: 10\n","  num_epochs: 300\n","RSCNN(\n","  (model): RSCNN_SSN(\n","    (SA_modules): ModuleList(\n","      (0): PointnetSAModuleMSG(\n","        (groupers): ModuleList(\n","          (0): QueryAndGroup()\n","        )\n","        (mlps): ModuleList(\n","          (0): SharedRSConv(\n","            (RSConvLayer0): RSConvLayer(\n","              (RS_Conv): RSConv(\n","                (bn_rsconv): BatchNorm2d(16, eps=1e-05, momentum=0.1, affine=True, track_running_stats=True)\n","                (bn_channel_raising): BatchNorm1d(128, eps=1e-05, momentum=0.1, affine=True, track_running_stats=True)\n","                (bn_xyz_raising): BatchNorm2d(16, eps=1e-05, momentum=0.1, affine=True, track_running_stats=True)\n","                (bn_mapping): BatchNorm2d(64, eps=1e-05, momentum=0.1, affine=True, track_running_stats=True)\n","                (activation): ReLU(inplace=True)\n","                (mapping_func1): Conv2d(10, 64, kernel_size=(1, 1), stride=(1, 1))\n","                (mapping_func2): Conv2d(64, 16, kernel_size=(1, 1), stride=(1, 1))\n","                (cr_mapping): Conv1d(16, 128, kernel_size=(1,), stride=(1,))\n","                (xyz_raising): Conv2d(3, 16, kernel_size=(1, 1), stride=(1, 1))\n","              )\n","            )\n","          )\n","        )\n","      )\n","      (1): PointnetSAModuleMSG(\n","        (groupers): ModuleList(\n","          (0): QueryAndGroup()\n","        )\n","        (mlps): ModuleList(\n","          (0): SharedRSConv(\n","            (RSConvLayer0): RSConvLayer(\n","              (RS_Conv): RSConv(\n","                (bn_rsconv): BatchNorm2d(131, eps=1e-05, momentum=0.1, affine=True, track_running_stats=True)\n","                (bn_channel_raising): BatchNorm1d(512, eps=1e-05, momentum=0.1, affine=True, track_running_stats=True)\n","                (bn_xyz_raising): BatchNorm2d(16, eps=1e-05, momentum=0.1, affine=True, track_running_stats=True)\n","                (bn_mapping): BatchNorm2d(128, eps=1e-05, momentum=0.1, affine=True, track_running_stats=True)\n","                (activation): ReLU(inplace=True)\n","                (mapping_func1): Conv2d(10, 128, kernel_size=(1, 1), stride=(1, 1))\n","                (mapping_func2): Conv2d(128, 131, kernel_size=(1, 1), stride=(1, 1))\n","                (cr_mapping): Conv1d(131, 512, kernel_size=(1,), stride=(1,))\n","              )\n","            )\n","          )\n","        )\n","      )\n","      (2): PointnetSAModule(\n","        (groupers): ModuleList(\n","          (0): GroupAll()\n","        )\n","        (mlps): ModuleList(\n","          (0): GloAvgConv(\n","            (conv_avg): Conv2d(515, 1024, kernel_size=(1, 1), stride=(1, 1))\n","            (bn_avg): BatchNorm2d(1024, eps=1e-05, momentum=0.1, affine=True, track_running_stats=True)\n","            (activation): ReLU(inplace=True)\n","          )\n","        )\n","      )\n","    )\n","    (FC_layer): Sequential(\n","      (0): FC(\n","        (fc): Linear(in_features=1024, out_features=512, bias=False)\n","        (bn): BatchNorm1d(\n","          (bn): BatchNorm1d(512, eps=1e-05, momentum=0.1, affine=True, track_running_stats=True)\n","        )\n","        (activation): ReLU(inplace=True)\n","      )\n","      (1): Dropout(p=0.5, inplace=False)\n","      (2): FC(\n","        (fc): Linear(in_features=512, out_features=256, bias=False)\n","        (bn): BatchNorm1d(\n","          (bn): BatchNorm1d(256, eps=1e-05, momentum=0.1, affine=True, track_running_stats=True)\n","        )\n","        (activation): ReLU(inplace=True)\n","      )\n","      (3): Dropout(p=0.5, inplace=False)\n","      (4): FC(\n","        (fc): Linear(in_features=256, out_features=40, bias=True)\n","      )\n","    )\n","  )\n",")\n","Recovering model and checkpoint from runs/mixup_rscnn_run_1/model_best_test.pth\n","EPSILON\n","0.05\n","setting parameters for standard version\n","using standard version including apgd-ce, apgd-t.\n","Traceback (most recent call last):\n","  File \"/content/drive/.shortcut-targets-by-id/13c6fMYtl5e-60Uej23p2ItJR
…
OSS_NAME: smooth\n","  METRIC: acc\n","  MODEL_NAME: dgcnn\n","  OPTIMIZER: vanilla\n","  SEED: 1\n","  TASK: cls\n","EXP_EXTRA:\n","  no_test: False\n","  no_val: True\n","  save_ckp: 25\n","  test_eval_freq: 1\n","  val_eval_freq: 1\n","MODEL:\n","  MV:\n","    backbone: resnet18\n","    feat_size: 16\n","  PN2:\n","    version_cls: 1.0\n","  RSCNN:\n","    ssn_or_msn: True\n","TRAIN:\n","  early_stop: 300\n","  l2: 0.0001\n","  learning_rate: 0.001\n","  lr_clip: 1e-05\n","  lr_decay_factor: 0.5\n","  lr_reduce_patience: 10\n","  num_epochs: 300\n","DGCNN(\n","  (model): DGCNN(\n","    (bn1): BatchNorm2d(64, eps=1e-05, momentum=0.1, affine=True, track_running_stats=True)\n","    (bn2): BatchNorm2d(64, eps=1e-05, momentum=0.1, affine=True, track_running_stats=True)\n","    (bn3): BatchNorm2d(128, eps=1e-05, momentum=0.1, affine=True, track_running_stats=True)\n","    (bn4): BatchNorm2d(256, eps=1e-05, momentum=0.1, affine=True, track_running_stats=True)\n","    (bn5): BatchNorm1d(1024, eps=1e-05, momentum=0.1, affine=True, track_running_stats=True)\n","    (conv1): Sequential(\n","      (0): Conv2d(6, 64, kernel_size=(1, 1), stride=(1, 1), bias=False)\n","      (1): BatchNorm2d(64, eps=1e-05, momentum=0.1, affine=True, track_running_stats=True)\n","      (2): LeakyReLU(negative_slope=0.2)\n","    )\n","    (conv2): Sequential(\n","      (0): Conv2d(128, 64, kernel_size=(1, 1), stride=(1, 1), bias=False)\n","      (1): BatchNorm2d(64, eps=1e-05, momentum=0.1, affine=True, track_running_stats=True)\n","      (2): LeakyReLU(negative_slope=0.2)\n","    )\n","    (conv3): Sequential(\n","      (0): Conv2d(128, 128, kernel_size=(1, 1), stride=(1, 1), bias=False)\n","      (1): BatchNorm2d(128, eps=1e-05, momentum=0.1, affine=True, track_running_stats=True)\n","      (2): LeakyReLU(negative_slope=0.2)\n","    )\n","    (conv4): Sequential(\n","      (0): Conv2d(256, 256, kernel_size=(1, 1), stride=(1, 1), bias=False)\n","      (1): BatchNorm2d(256, eps=1e-05, momentum=0.1, affine=True, track_running_stats=True)\n","      (2): LeakyReLU(negative_slope=0.2)\n","    )\n","    (conv5): Sequential(\n","      (0): Conv1d(512, 1024, kernel_size=(1,), stride=(1,), bias=False)\n","      (1): BatchNorm1d(1024, eps=1e-05, momentum=0.1, affine=True, track_running_stats=True)\n","      (2): LeakyReLU(negative_slope=0.2)\n","    )\n","    (linear1): Linear(in_features=2048, out_features=512, bias=False)\n","    (bn6): BatchNorm1d(512, eps=1e-05, momentum=0.1, affine=True, track_running_stats=True)\n","    (dp1): Dropout(p=0.5, inplace=False)\n","    (linear2): Linear(in_features=512, out_features=256, bias=True)\n","    (bn7): BatchNorm1d(256, eps=1e-05, momentum=0.1, affine=True, track_running_stats=True)\n","    (dp2): Dropout(p=0.5, inplace=False)\n","    (linear3): Linear(in_features=256, out_features=40, bias=True)\n","  )\n",")\n","Recovering model and checkpoint from runs/pgd_dgcnn_run_1/model_best_test.pth\n","EPSILON\n","0.05\n","setting parameters for standard version\n","using standard version including apgd-ce, apgd-t.\n","initial accuracy: 92.19%\n","torch.Size([1024, 1024, 3])\n","apgd-ce - 1/30 - 6 out of 32 successfully perturbed\n","apgd-ce - 2/30 - 9 
…
n","  LOSS_NAME: smooth\n","  METRIC: acc\n","  MODEL_NAME: pct\n","  OPTIMIZER: pct\n","  SEED: 1\n","  TASK: cls\n","EXP_EXTRA:\n","  no_test: False\n","  no_val: True\n","  save_ckp: 25\n","  test_eval_freq: 1\n","  val_eval_freq: 1\n","MODEL:\n","  MV:\n","    backbone: resnet18\n","    feat_size: 16\n","  PN2:\n","    version_cls: 1.0\n","  RSCNN:\n","    ssn_or_msn: True\n","TRAIN:\n","  early_stop: 300\n","  l2: 0.0001\n","  learning_rate: 0.0001\n","  lr_clip: 1e-05\n","  lr_decay_factor: 0.5\n","  lr_reduce_patience: 10\n","  num_epochs: 300\n","Pct(\n","  (model): Pct(\n","    (conv1): Conv1d(3, 64, kernel_size=(1,), stride=(1,), bias=False)\n","    (conv2): Conv1d(64, 64, kernel_size=(1,), stride=(1,), bias=False)\n","    (bn1): BatchNorm1d(64, eps=1e-05, momentum=0.1, affine=True, track_running_stats=True)\n","    (bn2): BatchNorm1d(64, eps=1e-05, momentum=0.1, affine=True, track_running_stats=True)\n","    (gather_local_0): Local_op(\n","      (conv1): Conv1d(128, 128, kernel_size=(1,), stride=(1,), bias=False)\n","      (conv2): Conv1d(128, 128, kernel_size=(1,), stride=(1,), bias=False)\n","      (bn1): BatchNorm1d(128, eps=1e-05, momentum=0.1, affine=True, track_running_stats=True)\n","      (bn2): BatchNorm1d(128, eps=1e-05, momentum=0.1, affine=True, track_running_stats=True)\n","    )\n","    (gather_local_1): Local_op(\n","      (conv1): Conv1d(256, 256, kernel_size=(1,), stride=(1,), bias=False)\n","      (conv2): Conv1d(256, 256, kernel_size=(1,), stride=(1,), bias=False)\n","      (bn1): BatchNorm1d(256, eps=1e-05, momentum=0.1, affine=True, track_running_stats=True)\n","      (bn2): BatchNorm1d(256, eps=1e-05, momentum=0.1, affine=True, track_running_stats=True)\n","    )\n","    (pt_last): Point_Transformer_Last(\n","      (conv1): Conv1d(256, 256, kernel_size=(1,), stride=(1,), bias=False)\n","      (conv2): Conv1d(256, 256, kernel_size=(1,), stride=(1,), bias=False)\n","      (bn1): BatchNorm1d(256, eps=1e-05, momentum=0.1, affine=True, track_running_stats=True)\n","      (bn2): BatchNorm1d(256, eps=1e-05, momentum=0.1, affine=True, track_running_stats=True)\n","      (sa1): SA_Layer(\n","        (q_conv): Conv1d(256, 64, kernel_size=(1,), stride=(1,), bias=False)\n","        (k_conv): Conv1d(256, 64, kernel_size=(1,), stride=(1,), bias=False)\n","        (v_conv): Conv1d(256, 256, kernel_size=(1,), stride=(1,))\n","        (trans_conv): Conv1d(256, 256, kernel_size=(1,), stride=(1,))\n","        (after_norm): BatchNorm1d(256, eps=1e-05, momentum=0.1, affine=True, track_running_stats=True)\n","        (act): ReLU()\n","        (softmax): Softmax(dim=-1)\n","      )\n","      (sa2): SA_Layer(\n","        (q_conv): Conv1d(256, 64, kernel_size=(1,), stride=(1,), bias=False)\n","        (k_conv): Conv1d(256, 64, kernel_size=(1,), stride=(1,), bias=False)\n","        (v_conv): Conv1d(256, 256, kernel_size=(1,), stride=(1,))\n","        (trans_conv): Conv1d(256, 256, kernel_size=(1,), stride=(1,))\n","        (after_norm): BatchNorm1d(256, eps=1e-05, momentum=0.1, affine=True, track_running_stats=True)\n","        (act): ReLU()\n","        (softmax): Softmax(dim=-1)\n","      )\n","      (sa3): SA_Layer(\n","        (q_conv): Conv1d(256, 64, kernel_size=(1,), stride=(1,), bias=False)\n","        (k_conv): Conv1d(256, 64, kernel_size=(1,), stride=(1,), bias=False)\n","        (v_conv): Conv1d(256, 256, kernel_size=(1,), stride=(1,))\n","        (trans_conv): Conv1d(256, 256, kernel_size=(1,), stride=(1,))\n","        (after_norm): BatchNorm1d(256, eps=1e-05, momentum=0.1, affine=True, track_running_stats=True)\n","        (act): ReLU()\n","        (softmax): Softmax(dim=-1)\n","      )\n","      (sa4): SA_Layer(\n","        (q_conv): Conv1d(256, 64, kernel_size=(1,), stride=(1,), bias=False)\n","        (k_conv): Conv1d(256, 64, kernel_size=(1,), stride=(1,), bias=False)\n","        (v_conv): Conv1d(256, 256, kernel_size=(1,), stride=(1,))\n","        (trans_conv): Conv1d(256, 256, kernel_size=(1,), stride=(1,))\n","        (after_norm): BatchNorm1d(256, eps=1e-05, momentum=0.1, affine=True, track_running_stats=True)\n","        (act): ReLU()\n","        (softmax): Softmax(dim=-1)\n","      )\n","    )\n","    (conv_fuse): Sequential(\n","      (0): Conv1d(1280, 1024, kernel_size=(1,), stride=(1,), bias=False)\n","      (1): BatchNorm1d(1024, eps=1e-05, momentum=0.1, affine=True, track_running_stats=True)\n","      (2): LeakyReLU(negative_slope=0.2)\n","    )\n","    (linear1): Linear(in_features=1024, out_features=512, bias=False)\n","    (bn6): BatchNorm1d(512, eps=1e-05, momentum=0.1, affine=True, track_running_stats=True)\n","    (dp1): Dropout(p=0.5, inplace=False)\n","    (linear2): Linear(in_features=512, out_features=256, bias=True)\n","    (bn7): BatchNorm1d(256, eps=1e-05, momentum=0.1, affine=True, track_running_stats=True)\n","    (dp2): Dropout(p=0.5, inplace=False)\n","    (linear3): Linear(in_features=256, out_features=40, bias=True)\n","  )\n",")\n","Recovering model and checkpoint from runs/pgd_pct_run_1/model_best_test.pth\n","EPSILON\n","0.05\n","setting parameters for standard version\n","using standard version including apgd-ce, apgd-t.\n","/content/drive/.shortcut-targets-by-id/13c6fMYtl5e-60Uej23p2ItJRgTm7trhw/project/ModelNet40c/rs_cnn/models/../utils/pointnet2_utils.py:52:
…
  LOSS_NAME: smooth\n","  METRIC: acc\n","  MODEL_NAME: dgcnn\n","  OPTIMIZER: vanilla\n","  SEED: 1\n","  TASK: cls\n","EXP_EXTRA:\n","  no_test: False\n","  no_val: True\n","  save_ckp: 25\n","  test_eval_freq: 1\n","  val_eval_freq: 1\n","MODEL:\n","  MV:\n","    backbone: resnet18\n","    feat_size: 16\n","  PN2:\n","    version_cls: 1.0\n","  RSCNN:\n","    ssn_or_msn: True\n","TRAIN:\n","  early_stop: 300\n","  l2: 0.0\n","  learning_rate: 0.001\n","  lr_clip: 1e-05\n","  lr_decay_factor: 0.5\n","  lr_reduce_patience: 10\n","  num_epochs: 300\n","DGCNN(\n","  (model): DGCNN(\n","    (bn1): BatchNorm2d(64, eps=1e-05, momentum=0.1, affine=True, track_running_stats=True)\n","    (bn2): BatchNorm2d(64, eps=1e-05, momentum=0.1, affine=True, track_running_stats=True)\n","    (bn3): BatchNorm2d(128, eps=1e-05, momentum=0.1, affine=True, track_running_stats=True)\n","    (bn4): BatchNorm2d(256, eps=1e-05, momentum=0.1, affine=True, track_running_stats=True)\n","    (bn5): BatchNorm1d(1024, eps=1e-05, momentum=0.1, affine=True, track_running_stats=True)\n","    (conv1): Sequential(\n","      (0): Conv2d(6, 64, kernel_size=(1, 1), stride=(1, 1), bias=False)\n","      (1): BatchNorm2d(64, eps=1e-05, momentum=0.1, affine=True, track_running_stats=True)\n","      (2): LeakyReLU(negative_slope=0.2)\n","    )\n","    (conv2): Sequential(\n","      (0): Conv2d(128, 64, kernel_size=(1, 1), stride=(1, 1), bias=False)\n","      (1): BatchNorm2d(64, eps=1e-05, momentum=0.1, affine=True, track_running_stats=True)\n","      (2): LeakyReLU(negative_slope=0.2)\n","    )\n","    (conv3): Sequential(\n","      (0): Conv2d(128, 128, kernel_size=(1, 1), stride=(1, 1), bias=False)\n","      (1): BatchNorm2d(128, eps=1e-05, momentum=0.1, affine=True, track_running_stats=True)\n","      (2): LeakyReLU(negative_slope=0.2)\n","    )\n","    (conv4): Sequential(\n","      (0): Conv2d(256, 256, kernel_size=(1, 1), stride=(1, 1), bias=False)\n","      (1): BatchNorm2d(256, eps=1e-05, momentum=0.1, affine=True, track_running_stats=True)\n","      (2): LeakyReLU(negative_slope=0.2)\n","    )\n","    (conv5): Sequential(\n","      (0): Conv1d(512, 1024, kernel_size=(1,), stride=(1,), bias=False)\n","      (1): BatchNorm1d(1024, eps=1e-05, momentum=0.1, affine=True, track_running_stats=True)\n","      (2): LeakyReLU(negative_slope=0.2)\n","    )\n","    (linear1): Linear(in_features=2048, out_features=512, bias=False)\n","    (bn6): BatchNorm1d(512, eps=1e-05, momentum=0.1, affine=True, track_running_stats=True)\n","    (dp1): Dropout(p=0.5, inplace=False)\n","    (linear2): Linear(in_features=512, out_features=256, bias=True)\n","    (bn7): BatchNorm1d(256, eps=1e-05, momentum=0.1, affine=True, track_running_stats=True)\n","    (dp2): Dropout(p=0.5, inplace=False)\n","    (linear3): Linear(in_features=256, out_features=40, bias=True)\n","  )\n",")\n","Recovering model and checkpoint from runs/rsmix_dgcnn_run_1/model_best_test.pth\n","EPSILON\n","0.05\n","setting parameters for standard version\n","using standard version including apgd-ce, apgd-t.\n","initial accuracy: 92.38%\n","torch.Size([1024, 1024, 3])\n","apgd-ce - 1/30 - 32 out of 32 successfully perturbed\n","apgd-ce - 2/30 -
…
   version_cls: 1.0\n","  RSCNN:\n","    ssn_or_msn: True\n","TRAIN:\n","  early_stop: 300\n","  l2: 0.0\n","  learning_rate: 0.001\n","  lr_clip: 1e-05\n","  lr_decay_factor: 0.5\n","  lr_reduce_patience: 10\n","  num_epochs: 300\n","RSCNN(\n","  (model): RSCNN_SSN(\n","    (SA_modules): ModuleList(\n","      (0): PointnetSAModuleMSG(\n","        (groupers): ModuleList(\n","          (0): QueryAndGroup()\n","        )\n","        (mlps): ModuleList(\n","          (0): SharedRSConv(\n","            (RSConvLayer0): RSConvLayer(\n","              (RS_Conv): RSConv(\n","                (bn_rsconv): BatchNorm2d(16, eps=1e-05, momentum=0.1, affine=True, track_running_stats=True)\n","                (bn_channel_raising): BatchNorm1d(128, eps=1e-05, momentum=0.1, affine=True, track_running_stats=True)\n","                (bn_xyz_raising): BatchNorm2d(16, eps=1e-05, momentum=0.1, affine=True, track_running_stats=True)\n","                (bn_mapping): BatchNorm2d(64, eps=1e-05, momentum=0.1, affine=True, track_running_stats=True)\n","                (activation): ReLU(inplace=True)\n","                (mapping_func1): Conv2d(10, 64, kernel_size=(1, 1), stride=(1, 1))\n","                (mapping_func2): Conv2d(64, 16, kernel_size=(1, 1), stride=(1, 1))\n","                (cr_mapping): Conv1d(16, 128, kernel_size=(1,), stride=(1,))\n","                (xyz_raising): Conv2d(3, 16, kernel_size=(1, 1), stride=(1, 1))\n","              )\n","            )\n","          )\n","        )\n","      )\n","      (1): PointnetSAModuleMSG(\n","        (groupers): ModuleList(\n","          (0): QueryAndGroup()\n","        )\n","        (mlps): ModuleList(\n","          (0): SharedRSConv(\n","            (RSConvLayer0): RSConvLayer(\n","              (RS_Conv): RSConv(\n","                (bn_rsconv): BatchNorm2d(131, eps=1e-05, momentum=0.1, affine=True, track_running_stats=True)\n","                (bn_channel_raising): BatchNorm1d(512, eps=1e-05, momentum=0.1, affine=True, track_running_stats=True)\n","                (bn_xyz_raising): BatchNorm2d(16, eps=1e-05, momentum=0.1, affine=True, track_running_stats=True)\n","                (bn_mapping): BatchNorm2d(128, eps=1e-05, momentum=0.1, affine=True, track_running_stats=True)\n","                (activation): ReLU(inplace=True)\n","                (mapping_func1): Conv2d(10, 128, kernel_size=(1, 1), stride=(1, 1))\n","                (mapping_func2): Conv2d(128, 131, kernel_size=(1, 1), stride=(1, 1))\n","                (cr_mapping): Conv1d(131, 512, kernel_size=(1,), stride=(1,))\n","              )\n","            )\n","          )\n","        )\n","      )\n","      (2): PointnetSAModule(\n","        (groupers): ModuleList(\n","          (0): GroupAll()\n","        )\n","        (mlps): ModuleList(\n","          (0): GloAvgConv(\n","            (conv_avg): Conv2d(515, 1024, kernel_size=(1, 1), stride=(1, 1))\n","            (bn_avg): BatchNorm2d(1024, eps=1e-05, momentum=0.1, affine=True, track_running_stats=True)\n","            (activation): ReLU(inplace=True)\n","          )\n","        )\n","      )\n","    )\n","    (FC_layer): Sequential(\n","      (0): FC(\n","        (fc): Linear(in_features=1024, out_features=512, bias=False)\n","        (bn): BatchNorm1d(\n","          (bn): BatchNorm1d(512, eps=1e-05, momentum=0.1, affine=True, track_running_stats=True)\n","        )\n","        (activation): ReLU(inplace=True)\n","      )\n","      (1): Dropout(p=0.5, inplace=False)\n","      (2): FC(\n","        (fc): Linear(in_features=512, out_features=256, bias=False)\n","        (bn): BatchNorm1d(\n","          (bn): BatchNorm1d(256, eps=1e-05, momentum=0.1, affine=True, track_running_stats=True)\n","        )\n","        (activation): ReLU(inplace=True)\n","      )\n","      (3): Dropout(p=0.5, inplace=False)\n","      (4): FC(\n","        (fc): Linear(in_features=256, out_features=40, bias=True)\n","      )\n","    )\n","  )\n",")\n","Recovering model and checkpoint from runs/rsmix_rscnn_run_1/model_best_test.pth\n","EPSILON\n","0.05\n","setting parameters for standard version\n","using standard version including apgd-ce, apgd-t.\n","Traceback (most recent call last):\n","  File \"/content/drive/.shortcut-targets-by-id/13c6fMYtl5e-60Uej23p2ItJR
…
